…
-    "    model = AttentionGPTLMHeadModel.from_pretrained_hf(\"hazyresearch/attn-360m\").to(\"cuda\")\n",
-    "\n",
-    "    # Mamba\n",
-    "    tokenizer = AutoTokenizer.from_pretrained(\"gpt2\")\n",
-    "    model = MambaLMHeadModel.from_pretrained_hf(\"hazyresearch/mamba-360m\").to(\"cuda\")"
-   ]
-  },
-  {
-   "cell_type": "code",
-   "execution_count": 6,
-   "metadata": {},
-   "outputs": [
-    {
-     "data": {
-      "text/plain": [
-       "GPTLMHeadModel(\n",
-       "  (transformer): GPTModel(\n",
-       "    (embeddings): GPT2Embeddings(\n",
-       "      (word_embeddings): Embedding(50264, 1024)\n",
-       "    )\n",
-       "    (layers): ModuleList(\n",
-       "      (0): Block(\n",
-       "        (mixer): BaseConv(\n",
-       "          (in_proj): Linear(in_features=1024, out_features=4096, bias=True)\n",
-       "          (out_proj): Linear(in_features=2048, out_features=1024, bias=True)\n",
-       "          (conv): ShortConvolution(\n",
-       "            (conv): Conv1d(2048, 2048, kernel_size=(3,), stride=(1,), padding=(2,), groups=2048, bias=False)\n",
-       "          )\n",
-       "        )\n",
-       "        (dropout1): Dropout(p=0, inplace=False)\n",
-       "        (drop_path1): StochasticDepth(p=0.0, mode=row)\n",
-       "        (norm1): RMSNorm()\n",
-       "        (mlp): GatedMlp(\n",
-       "          (fc1): Linear(in_features=1024, out_features=4096, bias=False)\n",
-       "          (fc2): Linear(in_features=2048, out_features=1024, bias=False)\n",
-       "        )\n",
-       "        (dropout2): Dropout(p=0, inplace=False)\n",
-       "        (drop_path2): StochasticDepth(p=0.0, mode=row)\n",
-       "        (norm2): RMSNorm()\n",
-       "      )\n",
-       "      (1): Block(\n",
-       "        (mixer): LinearAttention(\n",
-       "          (feature_map): TaylorExp()\n",
-       "          (proj_q): Linear(in_features=1024, out_features=256, bias=False)\n",
-       "          (proj_k): Linear(in_features=1024, out_features=256, bias=False)\n",
-       "          (proj_v): Linear(in_features=1024, out_features=1024, bias=False)\n",
-       "          (out_proj): Linear(in_features=1024, out_features=1024, bias=False)\n",
-       "        )\n",
-       "        (dropout1): Dropout(p=0, inplace=False)\n",
-       "        (drop_path1): StochasticDepth(p=0.0, mode=row)\n",
-       "        (norm1): RMSNorm()\n",
-       "        (mlp): GatedMlp(\n",
-       "          (fc1): Linear(in_features=1024, out_features=4096, bias=False)\n",
-       "          (fc2): Linear(in_features=2048, out_features=1024, bias=False)\n",
-       "        )\n",
-       "        (dropout2): Dropout(p=0, inplace=False)\n",
-       "        (drop_path2): StochasticDepth(p=0.0, mode=row)\n",
-       "        (norm2): RMSNorm()\n",
-       "      )\n",
-       "      (2): Block(\n",
-       "        (mixer): SlidingAttention(\n",
-       "          (rotary_emb): RotaryEmbedding()\n",
-       "          (Wqkv): FusedDense(in_features=1024, out_features=3072, bias=False)\n",
-       "          (inner_attn): FlashSelfAttention(\n",
-       "            (drop): Dropout(p=0, inplace=False)\n",
-       "          )\n",
-       "          (inner_cross_attn): FlashCrossAttention(\n",
-       "            (drop): Dropout(p=0, inplace=False)\n",
-       "          )\n",
-       "          (out_proj): FusedDense(in_features=1024, out_features=1024, bias=False)\n",
-       "        )\n",
-       "        (dropout1): Dropout(p=0, inplace=False)\n",
-       "        (drop_path1): StochasticDepth(p=0.0, mode=row)\n",
-       "        (norm1): RMSNorm()\n",
-       "        (mlp): GatedMlp(\n",
-       "          (fc1): Linear(in_features=1024, out_features=4096, bias=False)\n",
-       "          (fc2): Linear(in_features=2048, out_features=1024, bias=False)\n",
-       "        )\n",
-       "        (dropout2): Dropout(p=0, inplace=False)\n",
-       "        (drop_path2): StochasticDepth(p=0.0, mode=row)\n",
-       "        (norm2): RMSNorm()\n",
-       "      )\n",
-       "      (3-5): 3 x Block(\n",
-       "        (mixer): BaseConv(\n",
-       "          (in_proj): Linear(in_features=1024, out_features=4096, bias=True)\n",
-       "          (out_proj): Linear(in_features=2048, out_features=1024, bias=True)\n",
-       "          (conv): ShortConvolution(\n",
-       "            (conv): Conv1d(2048, 2048, kernel_size=(3,), stride=(1,), padding=(2,), groups=2048, bias=False)\n",
-       "          )\n",
-       "        )\n",
-       "        (dropout1): Dropout(p=0, inplace=False)\n",
-       "        (drop_path1): StochasticDepth(p=0.0, mode=row)\n",
-       "        (norm1): RMSNorm()\n",
-       "        (mlp): GatedMlp(\n",
-       "          (fc1): Linear(in_features=1024, out_features=4096, bias=False)\n",
-       "          (fc2): Linear(in_features=2048, out_features=1024, bias=False)\n",
-       "        )\n",
-       "        (dropout2): Dropout(p=0, inplace=False)\n",
-       "        (drop_path2): StochasticDepth(p=0.0, mode=row)\n",
-       "        (norm2): RMSNorm()\n",
-       "      )\n",
-       "      (6): Block(\n",
-       "        (mixer): LinearAttention(\n",
-       "          (feature_map): TaylorExp()\n",
-       "          (proj_q): Linear(in_features=1024, out_features=256, bias=False)\n",
-       "          (proj_k): Linear(in_features=1024, out_features=256, bias=False)\n",
-       "          (proj_v): Linear(in_features=1024, out_features=1024, bias=False)\n",
-       "          (out_proj): Linear(in_features=1024, out_features=1024, bias=False)\n",
-       "        )\n",
-       "        (dropout1): Dropout(p=0, inplace=False)\n",
-       "        (drop_path1): StochasticDepth(p=0.0, mode=row)\n",
-       "        (norm1): RMSNorm()\n",
-       "        (mlp): GatedMlp(\n",
-       "          (fc1): Linear(in_features=1024, out_features=4096, bias=False)\n",
-       "          (fc2): Linear(in_features=2048, out_features=1024, bias=False)\n",
-       "        )\n",
-       "        (dropout2): Dropout(p=0, inplace=False)\n",
-       "        (drop_path2): StochasticDepth(p=0.0, mode=row)\n",
-       "        (norm2): RMSNorm()\n",
-       "      )\n",
-       "      (7): Block(\n",
-       "        (mixer): SlidingAttention(\n",
-       "          (rotary_emb): RotaryEmbedding()\n",
-       "          (Wqkv): FusedDense(in_features=1024, out_features=3072, bias=False)\n",
…
-       "          (inner_attn): FlashSelfAttention(\n",
-       "            (drop): Dropout(p=0, inplace=False)\n",
-       "          )\n",
-       "          (inner_cross_attn): FlashCrossAttention(\n",
-       "            (drop): Dropout(p=0, inplace=False)\n",
-       "          )\n",
-       "          (out_proj): FusedDense(in_features=1024, out_features=1024, bias=False)\n",
-       "        )\n",
-       "        (dropout1): Dropout(p=0, inplace=False)\n",
-       "        (drop_path1): StochasticDepth(p=0.0, mode=row)\n",
-       "        (norm1): RMSNorm()\n",
-       "        (mlp): GatedMlp(\n",
-       "          (fc1): Linear(in_features=1024, out_features=4096, bias=False)\n",
-       "          (fc2): Linear(in_features=2048, out_features=1024, bias=False)\n",
-       "        )\n",
-       "        (dropout2): Dropout(p=0, inplace=False)\n",
-       "        (drop_path2): StochasticDepth(p=0.0, mode=row)\n",
-       "        (norm2): RMSNorm()\n",
-       "      )\n",
-       "      (23-26): 4 x Block(\n",
-       "        (mixer): BaseConv(\n",
-       "          (in_proj): Linear(in_features=1024, out_features=4096, bias=True)\n",
-       "          (out_proj): Linear(in_features=2048, out_features=1024, bias=True)\n",
-       "          (conv): ShortConvolution(\n",
-       "            (conv): Conv1d(2048, 2048, kernel_size=(3,), stride=(1,), padding=(2,), groups=2048, bias=False)\n",
-       "          )\n",
-       "        )\n",
-       "        (dropout1): Dropout(p=0, inplace=False)\n",
-       "        (drop_path1): StochasticDepth(p=0.0, mode=row)\n",
-       "        (norm1): RMSNorm()\n",
-       "        (mlp): GatedMlp(\n",
-       "          (fc1): Linear(in_features=1024, out_features=4096, bias=False)\n",
-       "          (fc2): Linear(in_features=2048, out_features=1024, bias=False)\n",
-       "        )\n",
-       "        (dropout2): Dropout(p=0, inplace=False)\n",
-       "        (drop_path2): StochasticDepth(p=0.0, mode=row)\n",
-       "        (norm2): RMSNorm()\n",
-       "      )\n",
-       "    )\n",
-       "    (drop_f): Dropout(p=0, inplace=False)\n",
-       "    (ln_f): RMSNorm()\n",
-       "  )\n",
-       "  (lm_head): Linear(in_features=1024, out_features=50264, bias=False)\n",
-       ")"
-      ]
-     },
-     "execution_count": 6,
-     "metadata": {},
-     "output_type": "execute_result"
-    }
-   ],
-   "source": [
-    "# Step 4: Inspect the hybrid structure of Based\n",
-    "model"
-   ]
-  },
-  {
-   "cell_type": "markdown",
-   "metadata": {},
-   "source": [
-    "### Sample next token predictions"
-   ]
…
